9-evaluation/assets/demo9/fraud_detector.pth (torch, 19086 bytes, 5 tensors)

fc1.weight f4 [64, 30]
0	0x3e0f07cc	0.13967818
1	0x3e2c9db9	0.16857041
2	0x3e112106	0.14172754
3	0xbd7258c3	-0.05916668
4	0x3e0ac7b5	0.13552745
5	0xbe1c0ed4	-0.15240031
6	0x3dcee268	0.10101777
7	0xbc891576	-0.016733866
8	0xbe2b789c	-0.16745228
9	0xbe17d3a2	-0.14826825
10	0xbe355071	-0.17706467
11	0x3d2b524a	0.041826524
12	0xbd979cb8	-0.074029386
13	0xbe272192	-0.163214
14	0x3e26b2a8	0.1627909
15	0x3d789830	0.060692012
16	0x3d60c4c7	0.05487516
17	0xbd0ccfce	-0.034377865
18	0x3de2cfb1	0.1107477
19	0x3d803ad0	0.062612176
20	0x3e04cf17	0.12969624
21	0x3c78c9d1	0.0151848355
22	0xbdb635fc	-0.088970155
23	0x3e6d3367	0.2316414
24	0xbdc54f88	-0.0963431
25	0xbde00a2f	-0.10939442
26	0x3e135cf6	0.1439093
27	0xbc5335b2	-0.01289122
28	0xbdd46518	-0.103708446
29	0x3d59f0aa	0.05320803
30	0xbe083b0c	-0.13303775
31	0xbdea151b	-0.11429807
32	0xbd077340	-0.033068895
33	0xbddd7fff	-0.10815429
34	0x3cc58b75	0.02411435
35	0xbc479224	-0.012180839
36	0x3e136f95	0.14398034
37	0xbe01f195	-0.12689812
38	0xbe0b022a	-0.13575044
39	0xbe2ac233	-0.16675644
40	0xbd4fceed	-0.05073445
41	0x3d7a9fb3	0.061187457
42	0xbe30b11f	-0.17255066
43	0xbcfa97d4	-0.030589975
44	0xbe66620f	-0.22498344
45	0x3e34b9a6	0.17648944
46	0xbba15897	-0.004923891
47	0xbd17f9d3	-0.037103485
48	0xbd95c1f2	-0.07312383
49	0x3d8902f4	0.066900164
50	0x3e5863f2	0.21131876
51	0xbdf9871b	-0.121839724
52	0xbd1ca088	-0.038239032
53	0x3e1cfe2b	0.15331332
54	0xbc6a6055	-0.014305194
55	0xbc85b104	-0.01631976
56	0x3d817c87	0.0632258
57	0xbdb787c3	-0.08961441
58	0x3d84bc3c	0.06481215
59	0xbd36796e	-0.044549398
60	0xbe416f20	-0.18890047
61	0x3d8ee96b	0.06978115
62	0x3de26053	0.11053529
63	0x3e419a44	0.18906504
64	0xbd36a54d	-0.044591237
65	0x3da8959e	0.08231662
66	0xbe0585de	-0.13039348
67	0x3debadac	0.11507735
68	0x3e2f47f0	0.17117286
69	0x3decf08d	0.11569319
70	0xbd6fa6f3	-0.058508825
71	0x3e035c7e	0.12828252
72	0xbe1de052	-0.15417603
73	0x3d48fa54	0.049066857
74	0xbcc760a0	-0.024338067
75	0xbe74d35b	-0.2390875
76	0xbdb1e124	-0.0868552
77	0xbdf60d53	-0.1201426
78	0x3d7cd1ac	0.061723396
79	0xbd1672f1	-0.03673071
80	0x3db8999e	0.09013675
81	0xbdbbad2b	-0.091638885
82	0x3de06854	0.10957399
83	0xbd9606e5	-0.07325534
84	0x3e4ed013	0.20196562
85	0x3e71b5c0	0.23604488
86	0xbe8d836e	-0.27639335
87	0xbdcd31f9	-0.10019297
88	0x3df4a6ab	0.11945852
89	0x3e06960a	0.13143173
90	0xbe8226fd	-0.2542037
91	0xbab99f0d	-0.0014161781
92	0xbde2227b	-0.11041733
93	0x3e5b97b2	0.21444586
94	0x3de812a3	0.1133168
95	0x3e012a8b	0.12613885
96	0x3e0ced9c	0.13762516
97	0x3c2cd186	0.010548001
98	0x3e4ec18d	0.20191021
99	0xbd558ae6	-0.052134417
100	0x3cf14663	0.029452508
101	0xbdabe187	-0.08392625
102	0xbdef4dfe	-0.11684798
103	0xbd1ed388	-0.03877595
104	0x3d98c0ba	0.07458635
105	0xbe2e99e8	-0.17050898
106	0xbe09e8f2	-0.13467768
107	0xbcb6045c	-0.022218876
108	0x3ca8012d	0.020508373
109	0xbdfa6d5f	-0.12227892
110	0x3d9cf435	0.07663766
111	0xbdf6993e	-0.120409474
112	0xbd8b9691	-0.06815828
113	0xbe221989	-0.15830053
114	0xbda42c73	-0.080162905
115	0xbe3faefe	-0.18719098
116	0x3e9032e2	0.2816382
117	0x3e29c85a	0.16580334
118	0x3de375d5	0.11106459
119	0x3e853625	0.26017871
120	0xbe1a3cb0	-0.15062213
121	0x3d3e29d2	0.0464266
122	0x3e1c7454	0.1527875
123	0xbe4dde74	-0.2010439
124	0xbd57ae76	-0.052656613
125	0x3d3ab1af	0.04557961
126	0xbd084d32	-0.033276744
127	0xbe22d908	-0.15903103
128	0xbda8938c	-0.08231267
129	0x3d631e65	0.05544891
130	0xbd2e536b	-0.042560022
131	0x3d8da3d7	0.069160156
132	0xbe638807	-0.22219859
133	0x3d5aa8cc	0.053383633
134	0xbe482040	-0.19543552
135	0xbd050012	-0.03247077
136	0xbd72ce99	-0.059279058
137	0xbcf48256	-0.029847305
138	0x3d6c0b74	0.05762811
139	0xbd075ad4	-0.033045605
140	0x3d041add	0.03225218
141	0x3e33c97c	0.17557329
142	0xbe03cdf2	-0.1287153
143	0x3de27afb	0.11058613
144	0xbd8ac5c9	-0.06776006
145	0x3d4b5601	0.049642567
146	0x3d882885	0.066483535
147	0x3d819893	0.06327929
148	0xbe09087e	-0.13382146
149	0x3e6f7444	0.23384196
150	0xbe900f79	-0.28136805
151	0x3e6a55c9	0.22884287
152	0xbd9ead50	-0.077479005
153	0x3e4406c0	0.191432
154	0x3d87128b	0.06595334
155	0x3b2ad7de	0.0026068608
156	0xbdb46feb	-0.08810409
157	0xbcf13a93	-0.029446876
158	0xbd86703f	-0.06564378
159	0x3e864512	0.2622457
160	0x3daac188	0.083376944
161	0xbcb53c7e	-0.022123571
162	0x3e6fa015	0.2340091
163	0x3c5f42a1	0.013626725
164	0xbda01166	-0.078158185
165	0xbd11dc98	-0.035610765
166	0x3c06d391	0.008229152
167	0xbdd8a52d	-0.1057838
168	0x3e3b7ccd	0.18309326
169	0xbe9bd6e6	-0.30437392
170	0xbdbfbd68	-0.09362298
171	0xbda639d0	-0.081164956
172	0x3aeff653	0.0018307663
173	0x3dac8ba5	0.084250726
174	0xbdd44f50	-0.1036669
175	0xbd91d209	-0.07120139
176	0xbe94a906	-0.29035205
177	0xbd81581f	-0.06315636
178	0xbe320e54	-0.17388278
179	0x3d3ade00	0.045621872
180	0xbe86d0c8	-0.26331162
181	0x3e140887	0.14456378
182	0x3dc95126	0.09829931
183	0x3e76cf21	0.24102451
184	0xbe7fac22	-0.24968007
185	0xbe35247f	-0.17689703
186	0xbe33481e	-0.1750798
187	0x3da2b5a1	0.07944799
188	0x3cb19acd	0.02168026
189	0xbd69871b	-0.057013612
190	0x3dcaa04a	0.09893854
191	0x3e443bcc	0.19163436
192	0x3e5df9f2	0.21677378
193	0xbe7a5873	-0.24447803
194	0x3e423b0f	0.18967842
195	0xbc693ce4	-0.014235709
196	0x3cb7be0d	0.02242949
197	0xbdac56c8	-0.0841499
198	0xbe6f5509	-0.23372282
199	0xbdf43e0b	-0.11925896
200	0x3e3470cb	0.17621152
201	0xbe843b0f	-0.25826308
202	0xbe22052e	-0.15822288
203	0x3e7e8ef7	0.24859224
204	0x3e421b4c	0.18955725
205	0x3deed8bb	0.11662432
206	0xbe191acf	-0.14951633
207	0xbc83d4e8	-0.016092733
208	0x3e0e6fc0	0.13909817
209	0xbd834b2c	-0.06410822
210	0xbe3d577b	-0.18490402
211	0x3dd79a51	0.105274804
212	0xbe13895d	-0.14407869
213	0xbcfcdf57	-0.030868215
214	0x3b90e28f	0.004421539
215	0xbd8ceaf4	-0.06880751
216	0x3e135701	0.14388658
217	0xbe236206	-0.15955362
218	0xbd983d6d	-0.07433591
219	0xbd5483a1	-0.051883344
220	0x3e379752	0.17928818
221	0x3d92573f	0.07145547
222	0xbe092f66	-0.13396987
223	0x3e314616	0.17311892
224	0x3bf28cb6	0.007402028
225	0x3e42ca9e	0.19022605
226	0x3dec717d	0.11545084
227	0xbdbe050f	-0.092783086
228	0x3e3bb400	0.18330383
229	0xbd8234c2	-0.06357719
230	0xbd716bb3	-0.0589406
231	0x3dcb120d	0.09915552
232	0x3e666ce4	0.22502476
233	0x3d993c95	0.07482258
234	0xbe1febbe	-0.15617272
235	0xbc142ac3	-0.009043398
236	0x3e6578ee	0.22409412
237	0xbe1b904b	-0.15191762
238	0xbdc07e2e	-0.09399067
239	0xbe45569f	-0.19271325
240	0xbe3cf823	-0.18454032
241	0xbdb39464	-0.08768538
242	0x3cb583b9	0.022157537
243	0x3e43ed9c	0.1913361
244	0x3e7cd20d	0.24689503
245	0x3e0c83ca	0.13722149
246	0xbde138a3	-0.10997131
247	0x3e8ea3db	0.27859387
248	0x3e5376fb	0.20650856
249	0xbe2d4c5d	-0.16923662
250	0x3d66d6f8	0.056357354
251	0xbe5e7811	-0.21725489
252	0x3e67b844	0.22628886
253	0xbd18dc66	-0.037319563
254	0x3d82b856	0.063828155
255	0xbe103705	-0.14083488

fc1.bias f4 [64]
0	0x3dd83e18	0.105587184
1	0xbdbbe43e	-0.09174393
2	0x3e604a0e	0.2190325
3	0x3dc3103e	0.09524582
4	0xbe6ef8ea	-0.2333714
5	0x3e160edd	0.14654107
6	0xbd5d1bdb	-0.053981643
7	0x3e1cfe02	0.15331271
8	0xbd828aa0	-0.06374097
9	0x3bff1de0	0.007785544
10	0x3dd9845f	0.10620951
11	0xbcb1f807	-0.021724714
12	0xbdcf57e0	-0.10124183
13	0x3d02ff17	0.031981554
14	0x3d3ee049	0.046600614
15	0x3e17fb21	0.14841892
16	0x3e6d0dc3	0.23149781
17	0x3e37a89e	0.17935416
18	0xbd30ac51	-0.043133084
19	0x3db97cff	0.09057044
20	0x3d408bfe	0.047008507
21	0x3d00e1b9	0.031465266
22	0xbe9dfb40	-0.3085575
23	0x3c66b410	0.014081016
24	0x3ccdcbb6	0.025121551
25	0x3e7d5a58	0.24741495
26	0x3d58c41f	0.05292141
27	0xbe1d6d77	-0.15373789
28	0x3de6799e	0.112536654
29	0xbd8be2d1	-0.06830371
30	0x3df2f872	0.118637934
31	0x3d57cf02	0.052687652
32	0x3d1cc7ff	0.03827667
33	0x3e54ec50	0.20793271
34	0x3e497453	0.1967328
35	0x3cccaf4f	0.024985937
36	0x3da1966c	0.07890019
37	0xbdb00b85	-0.08595947
38	0x3e97aaf7	0.29622623
39	0x3e7e5769	0.24838032
40	0x3e6b638d	0.22987194
41	0x3e862368	0.26198888
42	0x3e704e4a	0.23467365
43	0x3e430267	0.19043885
44	0x3e3e7aa2	0.18601468
45	0xbe7584a3	-0.23976378
46	0xbda2c62e	-0.07947956
47	0x3ce21409	0.027597444
48	0x3dff1d3f	0.1245675
49	0x3e76fb57	0.24119316
50	0x3e26e68d	0.16298886
51	0xbe2cfab9	-0.16892518
52	0xbe0de2ee	-0.13856098
53	0x3e60d040	0.21954441
54	0x3dc06940	0.09395075
55	0x3e16be28	0.14720976
56	0xbe4db038	-0.20086753
57	0x3e908e14	0.28233397
58	0x3e84822e	0.2588057
59	0x3dc525bc	0.09626338
60	0xbe378816	-0.17923006
61	0x3e74d278	0.23908412
62	0xbe6781e4	-0.22608143
63	0x3e0de749	0.1385776

fc2.weight f4 [32, 64]
0	0x3db29b1d	0.08720992
1	0xbdb625c2	-0.088939205
2	0x3da7f94f	0.08201849
3	0x3c01681e	0.007898359
4	0x3b3c106b	0.002869631
5	0x3dee7872	0.11644067
6	0x3d90a974	0.070635706
7	0x3e4edbe1	0.20201065
8	0x3e3d0aa5	0.18461092
9	0x3dc3c066	0.095581815
10	0x3d02619e	0.031831376
11	0x3d88f90c	0.06688127
12	0xbda54c83	-0.08071234
13	0x3b371123	0.0027933798
14	0x3d724afd	0.059153546
15	0x3e576f8b	0.21038644
16	0x3e806c78	0.25082755
17	0x3e470e6d	0.19439097
18	0x3ce93733	0.028468704
19	0x3e02e536	0.1278275
20	0x3daec4e2	0.08533646
21	0x3e078486	0.13234147
22	0xbd9afeed	-0.075681545
23	0x3e4fa5cb	0.20278089
24	0x3c66cf7b	0.014087553
25	0x3e25275d	0.16128297
26	0x3dda4800	0.10658264
27	0xbe4d1dc4	-0.20030886
28	0x3e26d72c	0.16293019
29	0x3e09d2d8	0.13459337
30	0x3e6f7b35	0.23386844
31	0x3e171d36	0.14757237
32	0x3d1dedb2	0.038556762
33	0x3e3c718f	0.18402694
34	0x3d43721e	0.047716253
35	0xbceb6b54	-0.028737701
36	0x3e394736	0.18093571
37	0xbccb6571	-0.024828644
38	0x3e114c2f	0.14189218
39	0x3d371eaa	0.044706978
40	0x3d85e97d	0.06538675
41	0x3e1b3729	0.1515776
42	0x3d5e496e	0.054269247
43	0x3db7aa8a	0.089680746
44	0x3d540b93	0.05176885
45	0x3b94ef31	0.0045451154
46	0x3e279caf	0.16368364
47	0x3cbca86b	0.023029527
48	0x3df0c1e0	0.11755729
49	0x3df5b165	0.11996726
50	0x3db46ff4	0.08810416
51	0x3cbd0aed	0.023076499
52	0xbd17bf69	-0.037047777
53	0x3ca0bd17	0.019621415
54	0x3cd188a3	0.025577849
55	0x3da0d9c7	0.07854038
56	0xbd8fd01a	-0.07022114
57	0x3d1af9d6	0.03783592
58	0x3dbad11f	0.09121918
59	0x3e8332ca	0.25624686
60	0xbe452ec2	-0.19256118
61	0x3d7bc705	0.061469097
62	0xbdfa07ac	-0.122084945
63	0xbcf26fe4	-0.02959437
64	0x3d49763e	0.04918503
65	0x3caa4ac6	0.020787608
66	0x3dfc7eef	0.12328898
67	0xbdbf4500	-0.093393326
68	0x3d448338	0.047976702
69	0x3d548e93	0.051893782
70	0xbd9acbf0	-0.07558429
71	0x398e2fa2	0.0002711984
72	0x3d49c14b	0.049256604
73	0xbda6b3a8	-0.081397355
74	0x3d30c06f	0.04315227
75	0x3d346e58	0.044050545
76	0x3dc97751	0.09837211
77	0x3e0cea6e	0.13761303
78	0xbda29223	-0.079380296
79	0xbdac6e8a	-0.08419521
80	0xbde4e2fb	-0.111761056
81	0xbd5e5d21	-0.054288033
82	0xbb4328e4	-0.0029779011
83	0x3e3160cb	0.1732208
84	0xbd0802a5	-0.033205647
85	0x3c494d01	0.012286426
86	0x37e0fb7c	2.6819987e-05
87	0xbdc6e517	-0.09711664
88	0x3dacdc04	0.08440402
89	0xbe43e300	-0.19129562
90	0x3e3fa179	0.1871394
91	0x3d694986	0.056954883
92	0xbd85607d	-0.06512544
93	0x3e11c347	0.14234649
94	0xbd43d734	-0.047812656
95	0xbd7c454c	-0.061589524
96	0x3da60d3d	0.08107994
97	0x3dd6ebd0	0.104941964
98	0x3d1b3e96	0.037901483
99	0x3d393e17	0.04522523
100	0x3dd6e957	0.10493725
101	0xbcda5a7a	-0.02665447
102	0xbddab217	-0.10678499
103	0xbda85212	-0.08218779
104	0xbcb25760	-0.02177018
105	0x3d4d8d7c	0.05018376
106	0xbe85d16f	-0.26136348
107	0xbc9c7770	-0.019099921
108	0xbca308d6	-0.019901674
109	0xbbf71ef0	-0.00754153
110	0x3df4bd5c	0.1195018
111	0xbdcb260f	-0.099193685
112	0xbb952151	-0.0045510908
113	0xbe3f1cf6	-0.18663391
114	0xbdccb520	-0.09995484
115	0xbd6d27e3	-0.057899367
116	0xbd2cd789	-0.042197738
117	0x3d968bd8	0.07350892
118	0x3dd47a13	0.10374846
119	0x3daf77cc	0.08567771
120	0x3e037471	0.12837388
121	0xbd867518	-0.065653026
122	0x3d52aa8c	0.051432177
123	0xbdbc9704	-0.092084914
124	0x3ddaf693	0.106915615
125	0xbe298e14	-0.16558105
126	0x3d04b902	0.032403
127	0xbcecfd4b	-0.028929373
128	0x3d154d3c	0.03645061
129	0x3d3e37b3	0.046439838
130	0xbc861194	-0.016365804
131	0xbd59adda	-0.053144313
132	0x3d023a06	0.031793617
133	0x3c96f3c0	0.018426776
134	0xbe767dc5	-0.24071415
135	0x3e3a25ba	0.18178454
136	0xbc82417c	-0.015900366
137	0xbe5abaed	-0.21360369
138	0xbe8ef0fa	-0.27918226
139	0xbe6f15b9	-0.2334813
140	0x3e154790	0.1457808
141	0x3e5a6ff9	0.21331777
142	0xbe414b31	-0.1887634
143	0xbdbbd13b	-0.09170767
144	0xbe605ae6	-0.21909675
145	0x3ceed528	0.029154375
146	0xbc7e9e80	-0.015540719
147	0xbc198a11	-0.0093712965
148	0xbe2594e6	-0.16170081
149	0x3ddb091e	0.10695098
150	0x3e51f172	0.2050226
151	0xbe640e6d	-0.22271128
152	0x3db1005f	0.08642649
153	0xbe0f1dd2	-0.1397622
154	0x3e0464ab	0.12929027
155	0x3e206f67	0.15667497
156	0xbe8a204a	-0.2697776
157	0x3e76b047	0.24090682
158	0xbe8658a1	-0.26239493
159	0xbd1be8f5	-0.038063962
160	0x3e2e4119	0.1701702
161	0x3d576aef	0.052592214
162	0x3c299672	0.01035081
163	0xbb26e0a2	-0.0025463481
164	0x3e3e5094	0.18585426
165	0x3de0f9a4	0.10985115
166	0xbdd7ae7f	-0.10531329
167	0xbcc6706a	-0.024223525
168	0xbe72f2c2	-0.23725417
169	0xbc6d47b0	-0.014482424
170	0xbd0ad604	-0.033895507
171	0x3bb58f7e	0.0055407872
172	0xbc5499b1	-0.012976096
173	0x3e38c761	0.18044807
174	0xbdf44165	-0.119265355
175	0x3d9206ab	0.07130178
176	0x3d43cae3	0.04780091
177	0xbd5794df	-0.05263221
178	0xbdefcd91	-0.117091306
179	0x3d62aaf1	0.055338804
180	0xbc638085	-0.013885622
181	0xbd43ccb1	-0.04780263
182	0x3d851671	0.06498421
183	0x3dc18bf7	0.09450524
184	0x3dbbc499	0.091683574
185	0xbe47ad82	-0.19499782
186	0xbcec526e	-0.0288479
187	0xbac70c3f	-0.0015186145
188	0x3e39eae8	0.18156016
189	0xbbca4c72	-0.006173664
190	0x3de2f189	0.110812254
191	0xba480487	-0.0007630069
192	0x3da71ada	0.081594184
193	0x3da9aeed	0.082853176
194	0x3dbc3582	0.09189893
195	0x3d2732bb	0.040819865
196	0x3c2f69df	0.010706394
197	0x3e04b1fe	0.12958524
198	0x3daddacc	0.08488998
199	0xbde7f130	-0.113253
200	0x3dda9d81	0.10674573
201	0x3d49e140	0.04928708
202	0x3e26e736	0.16299137
203	0x3ceb056b	0.028689107
204	0x3d2bd76c	0.04195349
205	0x3d841d2f	0.06450879
206	0x3da4a0d4	0.08038488
207	0x3e4b7667	0.19869386
208	0x3dea7bbe	0.11449383
209	0xbc378c49	-0.01120288
210	0x3c9a1a45	0.018811354
211	0xbd3979c7	-0.04528215
212	0x3d0e11b8	0.034684867
213	0x3caa82dc	0.020814352
214	0x3d3749c1	0.04474807
215	0x3e1d7d77	0.15379892
216	0xbbeea8ea	-0.0072833197
217	0x3da42e6e	0.08016668
218	0x3c669eb4	0.014075924
219	0xbd9c0ecc	-0.0762001
220	0x3e2672dd	0.16254754
221	0x3ccecee9	0.025245147
222	0x3dc84701	0.09779168
223	0x3da3d1ce	0.079990014
224	0xbd15ff4f	-0.036620434
225	0x3e0814cc	0.13289183
226	0x3e4fe8bb	0.20303623
227	0xbd9a7579	-0.075419374
228	0x3e4a411e	0.19751403
229	0xbd4b4d11	-0.049634043
230	0x3e6792e1	0.22614624
231	0x3db38bce	0.087669
232	0x3e29989b	0.1656212
233	0x3dab637a	0.08368583
234	0x3dccaaf4	0.09993544
235	0xbdb4c79b	-0.08827134
236	0xbded8d34	-0.11599198
237	0x3d46b445	0.048511762
238	0x3e16c660	0.14724112
239	0x3db19518	0.086710155
240	0xbcf4f9a4	-0.029904194
241	0x3e02d27a	0.12775603
242	0x3ded39c7	0.11583286
243	0xbdf2b7f2	-0.11851491
244	0xbdbe9108	-0.09305006
245	0x3e09c788	0.13455021
246	0xbd567f70	-0.052367628
247	0xbce27f2f	-0.027648536
248	0xbda8a6a7	-0.082349114
249	0x3e2bfe47	0.16796218
250	0xbd83a287	-0.06427484
251	0x3cede8f9	0.029041754
252	0x3cb94ea6	0.02262051
253	0x3e69052a	0.22755876
254	0x3dc4aaee	0.09602915
255	0x3d2bd122	0.04194749

fc2.bias f4 [32]
0	0x3e779011	0.2417605
1	0xbd4de351	-0.050265614
2	0x3d9c04d5	0.07618109
3	0x3cd9bcb2	0.026579235
4	0x3dfb33b9	0.12265725
5	0x3e10a27c	0.14124483
6	0x3cc78b3b	0.024358382
7	0xbd09e3e2	-0.03366459
8	0x3e2077d8	0.15670717
9	0x3e3389ab	0.17532985
10	0xbd139c2a	-0.0360376
11	0xbde71aee	-0.11284433
12	0x3e4a3ddf	0.19750164
13	0xbd02ae62	-0.031904586
14	0x3e22168b	0.15828912
15	0x3d16dfb0	0.03683442
16	0x3c591102	0.013248684
17	0x3d83af49	0.06429917
18	0xbd273ad2	-0.04082758
19	0x3d4b7c61	0.049679164
20	0x3da96aa0	0.0827229
21	0x3ce8c49c	0.028414063
22	0xbd531278	-0.051531285
23	0x3db3dfd6	0.08782928
24	0x3e29eddb	0.16594641
25	0xbb9c8c7b	-0.0047774888
26	0x3e2d6d3f	0.16936205
27	0xbba63048	-0.0050716735
28	0x3e1ee1e0	0.15515852
29	0x3e4ac175	0.1980036
30	0x3e2e1bbb	0.17002766
31	0xbdc346e7	-0.09535008

fc3.weight f4 [1, 32]
0	0xbe384c02	-0.17997745
1	0x3e1e5d88	0.15465367
2	0x3e91df9a	0.28490907
3	0xbe5aa01b	-0.21350138
4	0xbde04642	-0.109509006
5	0xbe4fc051	-0.20288207
6	0x3e66cf97	0.22540127
7	0x3e6c09fd	0.23050685
8	0xbe389945	-0.18027218
9	0xbe26e4c1	-0.162982
10	0x3d97c13f	0.07409906
11	0x3deef171	0.11667145
12	0xbe3b6a2b	-0.18302219
13	0xbe0b515b	-0.13605253
14	0xbe62362f	-0.22090982
15	0xbe314e03	-0.17314915
16	0x3df46bec	0.11934647
17	0x3e584f9f	0.21124123
18	0xbe404d33	-0.18779449
19	0x3e9296bc	0.28630626
20	0xbe6902ae	-0.22754928
21	0xbdbc9157	-0.09207409
22	0x3e5f6d8e	0.21819136
23	0x3e0c9496	0.13728556
24	0xbe89bce8	-0.26901937
25	0x3e4c809f	0.1997094
26	0xbe664574	-0.22487432
27	0x3e881100	0.2657547
28	0xbe18d4f0	-0.14924979
29	0xbe8815d1	-0.26579145
30	0xbe81223e	-0.25221437
31	0x3d821c4f	0.06353056
